cnn_model.pth (torch, 3804 bytes, 6 tensors)

conv1d.weight f4 [2, 1, 4]
0	0x3c8b1a54	0.016980328
1	0x3e32adfb	0.17449181
2	0xbe374a14	-0.17899352
3	0x3f814ca3	1.0101513
4	0x3d2ae420	0.041721463
5	0x3dacb2c0	0.08432531
6	0xbbdd1d80	-0.0067479014
7	0xbee0e2a8	-0.43922925

conv1d.bias f4 [2]
0	0x3a5c9608	0.00084146904
1	0xbee97f16	-0.4560477

lin.weight f4 [11, 22]
0	0x3da0958d	0.078410245
1	0x3e0b6e6a	0.13616338
2	0x3e01fe10	0.12694573
3	0xbe7e3f9d	-0.24828954
4	0xbe951a26	-0.29121512
5	0x3edf5fac	0.4362768
6	0x3e276055	0.16345342
7	0xbe1dbb68	-0.15403521
8	0xbc6a5fdc	-0.014305081
9	0x3daf5f4d	0.08563099
10	0x3f8d2945	1.102822
11	0x3ca64698	0.020297334
12	0x3db26348	0.08710343
13	0x3d1f4bb8	0.03889057
14	0x3d8805c0	0.06641722
15	0x3e15b2dc	0.1461901
16	0xbda17c5e	-0.07885049
17	0x3e2613cc	0.1621849
18	0x3e3bca00	0.18338776
19	0x3a97d500	0.0011583865
20	0x3e3f0710	0.18655038
21	0x3e2a0f36	0.16607365
22	0xbe4cec94	-0.20012122
23	0xbe859d1b	-0.26096424
24	0xbe04a5ce	-0.12953874
25	0x3e9f8a7e	0.3116035
26	0xbb055c20	-0.00203491
27	0x3ee71197	0.45130607
28	0x3ca213dc	0.01978486
29	0x3d9a1be8	0.07524854
30	0x3cd76045	0.026291022
31	0x3ea16ad6	0.31526822
32	0x3f605af9	0.87638813
33	0x3e2381b0	0.1596744
34	0xbe3070bd	-0.17230506
35	0xbddb70b2	-0.10714854
36	0xbc95b130	-0.018272966
37	0xbdc460cf	-0.09588777
38	0xbc52f9b0	-0.012876913
39	0x3dc683c8	0.09693104
40	0x3e1f85ac	0.15578336
41	0x3db53140	0.08847284
42	0xbd5ff6cc	-0.054678723
43	0x3e2ed922	0.17075017
44	0x3dd41622	0.10355784
45	0x3d0685cf	0.032842454
46	0x3d33822a	0.043825306
47	0x3bf2c742	0.0074090073
48	0xbd3cc489	-0.046085868
49	0xb9a8cab4	-0.00032194483
50	0x3d2b72dd	0.04185759
51	0x3cf3ec2f	0.029775707
52	0xbe3ab234	-0.18232042
53	0xbe8b8841	-0.2725239
54	0x3fb10e66	1.3832519
55	0x3d0748d4	0.03302844
56	0x3e433b32	0.1906555
57	0x3d2382b0	0.039919555
58	0x3e193942	0.14963248
59	0xba14cb00	-0.00056760013
60	0xbb9c3780	-0.0047673583
61	0x3e04e936	0.12979588
62	0x3d48e658	0.049047798
63	0x3db3bf88	0.08776766
64	0x3e083624	0.13301903
65	0x3e02bbe6	0.1276699
66	0xbe47516b	-0.19464652
67	0xba89024f	-0.0010452959
68	0xbe9aed4f	-0.30259177
69	0xbeb8a9ea	-0.36067134
70	0xbeb6be73	-0.35692176
71	0xbe628bf5	-0.22123702
72	0xbe56e119	-0.20984305
73	0xbcebd72e	-0.02878913
74	0xbec49bc9	-0.38400105
75	0xbeba0f36	-0.3633973
76	0xbe1f30cb	-0.15545957
77	0x3db139d4	0.08653608
78	0xbca86910	-0.02055791
79	0x3e34fc60	0.17674398
80	0x3d91194c	0.07084903
81	0xbe4caac8	-0.19987023
82	0x3d18ea10	0.037332594
83	0xbe4a9d62	-0.197866
84	0xbe1ee3bd	-0.15516563
85	0x3dc24730	0.09486234
86	0xbe0387a2	-0.12844709
87	0x3d1a7d10	0.037716925
88	0xbdb416fa	-0.08793445
89	0x3bca2e3d	0.006170063
90	0xbcee872e	-0.029117193
91	0xbe48effd	-0.19622798
92	0x3d838d8c	0.06423482
93	0xbe87eafb	-0.26546463
94	0x3d9ad83f	0.07560777
95	0x3b9b9a34	0.004748607
96	0x3cbe7500	0.02324915
97	0xbe9d8b00	-0.3077011
98	0xbe390ca0	-0.18071222
99	0xbe56181c	-0.20907634
100	0xbe4809ae	-0.19534943
101	0xbe470da6	-0.194388
102	0x3d543898	0.051811785
103	0xbdae048c	-0.08496961
104	0xbdcb3cf2	-0.09923734
105	0xbcb0f8d8	-0.021603033
106	0xbd5acfb8	-0.053420752
107	0x3ce1e988	0.027577177
108	0x3d2b7b38	0.041865557
109	0x3e27353c	0.16328901
110	0xbe7de012	-0.24792507
111	0xbdc212b4	-0.094762236
112	0xbeaa54d4	-0.33267844
113	0xbe829df0	-0.25511122
114	0x394b4576	0.00019385465
115	0xbeaa7e01	-0.33299258
116	0xbeb7eb0f	-0.35921523
117	0xbe90de30	-0.28294516
118	0xbe388120	-0.18018007
119	0xbe9437ad	-0.28948727
120	0x3a02c218	0.00049880287
121	0xbe4f021a	-0.20215645
122	0xbda97ee8	-0.082761586
123	0xbe4b74b9	-0.19868745
124	0xbd390cb0	-0.045178115
125	0xbd96ee9e	-0.07369731
126	0xbd6a8450	-0.05725509
127	0xbc504cb0	-0.012713596
128	0xbe081366	-0.1328865
129	0x3dc40894	0.09571949
130	0xbd211d20	-0.039334416
131	0x3dea0294	0.11426273
132	0x3d065b26	0.03280177
133	0xbcb2ce22	-0.021826807
134	0xbcb0ca3d	-0.02158081
135	0xbd147ed9	-0.036253784
136	0x3df3f22f	0.11911427
137	0x3d2de761	0.04245699
138	0x3d14691b	0.03623305
139	0xbda2568c	-0.07926664
140	0xbe59241b	-0.2120518
141	0xbe379d59	-0.17931117
142	0x3fb8c534	1.4435182
143	0x3e02c4b2	0.12770346
144	0x3c9ce1c8	0.01915063
145	0xbe28ef79	-0.16497602
146	0xbe5331a1	-0.206244
147	0x3d251020	0.04029858
148	0x3e3b6812	0.18301418
149	0x3e2d46b2	0.169215
150	0x3de26aa8	0.11055499
151	0x3d9105bc	0.07081172
152	0x3e39823c	0.18116087
153	0xbe0d770a	-0.13814941
154	0xbec6c798	-0.38824153
155	0xbdeefa18	-0.11668795
156	0xbea95413	-0.33071956
157	0xbe6213a7	-0.2207781
158	0xbe5576c5	-0.20846088
159	0xbe3f7ae8	-0.18699229
160	0xbe9e390f	-0.30902907
161	0xbd9a2d4f	-0.07528173
162	0xbe551379	-0.2080821
163	0x3d094659	0.033514354
164	0xbc687981	-0.014189125
165	0x3d313f90	0.04327351
166	0xbddbb896	-0.10728566
167	0x3e3d40a2	0.18481687
168	0xbe496eae	-0.19671127
169	0x3e41d20e	0.18927786
170	0xbe4a5077	-0.19757257
171	0xbb370200	-0.0027924776
172	0x3e35d350	0.1775639
173	0x3e4205d8	0.18947542
174	0xbe4b9228	-0.19879973
175	0xbccc8388	-0.024965063
176	0xbdbcc618	-0.09217471
177	0xbdc4da74	-0.09611979
178	0xbe0a4e4b	-0.13506429
179	0xbd093e6a	-0.03350679
180	0xbe8f446d	-0.27981892
181	0xbe1c52f7	-0.15266024
182	0xbe036cdd	-0.12834497
183	0x3d341ac1	0.043970827
184	0xbe60397a	-0.21896926
185	0xbe4c427f	-0.19947241
186	0x3c4c0a9f	0.012453704
187	0x3cd47b48	0.025937691
188	0x3e1a816a	0.1508843
189	0x3dd0efa8	0.10201961
190	0x3d496c20	0.04917538
191	0x3dc0a70c	0.09406862
192	0xbde071c1	-0.10959197
193	0xbe1d8bd2	-0.15385368
194	0x3c042d10	0.008067384
195	0xbe3cd900	-0.18442154
196	0x3d308650	0.04309684
197	0x3d76b578	0.060231656
198	0x3ca87d74	0.020567633
199	0x3d91ad53	0.07113137
200	0xba9841bc	-0.001161627
201	0xbcb03bb1	-0.021512838
202	0x3d6eb591	0.058278624
203	0x3d3ccc86	0.046093486
204	0x3dae2f78	0.08505148
205	0xbd99bacd	-0.075063325
206	0xbdaa61c5	-0.08319429
207	0xbe95b707	-0.292412
208	0x3fb5c9f9	1.4202262
209	0x3e1dbaa2	0.15403226
210	0xbd942b1a	-0.072347835
211	0x3e326764	0.17422253
212	0x3dda1bb4	0.10649815
213	0x3e4431f8	0.19159687
214	0xbd028014	-0.031860426
215	0xbe10a1c6	-0.14124212
216	0xbdb2f136	-0.087374136
217	0xbd7bca94	-0.06147249
218	0x3d1ce060	0.03829992
219	0xbdb2b2f8	-0.08725542
220	0xbf198b9c	-0.5997865
221	0xbe78f476	-0.24312004
222	0xbd50954b	-0.050923627
223	0x3e538e4d	0.20659752
224	0x3e2597a3	0.16171126
225	0x3c1646ae	0.009172125
226	0x3de00272	0.109379664
227	0x3dd29cd3	0.10283818
228	0xbf3014d2	-0.6878177
229	0x3f17f056	0.593511
230	0xbffc28f3	-1.9699997
231	0x3e2c5d90	0.16832566
232	0xbe406c94	-0.1879142
233	0x3d7e53e0	0.06209171
234	0x3d72f5f0	0.059316576
235	0x3e2c118a	0.16803566
236	0xbe2fccd8	-0.17167985
237	0x3db760c8	0.089540064
238	0xbc18a5c0	-0.009316862
239	0xbe024f64	-0.12725598
240	0x3d94c928	0.0726493
241	0x3d219318	0.03944692

lin.bias f4 [11]
0	0xbe66b96e	-0.22531673
1	0xbe9a9f36	-0.30199593
2	0xbe1eb405	-0.1549836
3	0xbbb96e21	-0.0056588803
4	0xbda3d5ba	-0.079997495
5	0xbc242a74	-0.010019887
6	0xbe35f06d	-0.17767496
7	0xbc45c1f3	-0.012070167
8	0xbd972633	-0.07380333
9	0xbe5ae507	-0.2137643
10	0x3ed08b0e	0.4073109

lin2.weight f4 [5, 11]
0	0x3df3a4c8	0.11896664
1	0x3dec2525	0.11530522
2	0x3e3e98a5	0.18612917
3	0x3e97d3bc	0.29653728
4	0x3e5c57a3	0.21517806
5	0x3dff9385	0.12479309
6	0x3e2ae651	0.16689421
7	0x3dd1efaa	0.102507904
8	0x3e65d42d	0.2244422
9	0x3e2d953e	0.16951463
10	0xbe801adc	-0.25020492
11	0x3df272a5	0.11838273
12	0x3e035e92	0.12829044
13	0x3e28f3a4	0.16499192
14	0x3de7047d	0.11280153
15	0xbe2ba5d5	-0.16762479
16	0x3ea42053	0.3205591
17	0x3e1b8555	0.15187581
18	0xbdd63814	-0.10459915
19	0xbb8e9e97	-0.0043524015
20	0x3e1c52c0	0.15265942
21	0xbe793602	-0.24337009
22	0x3df1ddad	0.118098594
23	0x3e09979a	0.13436738
24	0x3e1b6b7a	0.15177718
25	0xbe749355	-0.23884328
26	0x3e52aa40	0.20572758
27	0xbd040f36	-0.03224107
28	0x3e0cc77c	0.13747972
29	0xbe21bdd9	-0.15795077
30	0x3dcbe1e9	0.09955198
31	0x3e121088	0.14264119
32	0xbe7556f4	-0.23958951
33	0x3dee44f2	0.11634244
34	0x3e0852fb	0.13312905
35	0x3e14754e	0.14497873
36	0x3e677bd2	0.22605827
37	0x3e5774d4	0.2104066
38	0x3e1eb35d	0.15498109
39	0x3dfd779b	0.123763286
40	0x3c66f226	0.014095819
41	0xbe17c896	-0.14822611
42	0x3e0d85ab	0.13820522
43	0xbe70709d	-0.23480459
44	0x3debdcfd	0.115167595
45	0x3e086840	0.13321018
46	0x3e0c42c0	0.13697338
47	0xbdb9d7a7	-0.090743355
48	0x3d2bb214	0.041917875
49	0xbe1be41e	-0.15223739
50	0x3dea54cc	0.11441955
51	0x3d6156c4	0.055014387
52	0x3c4d3f9d	0.012527374
53	0x3e051c60	0.12999105
54	0xbe67f472	-0.22651842

lin2.bias f4 [5]
0	0x3e0f5898	0.1399864
1	0x3e1593b8	0.14607131
2	0x3e1b119d	0.15143438
3	0x3e1ff143	0.15619378
4	0x3e24524f	0.16047023
